last_brain.pth (torch_old, 5158 bytes, 12 tensors)

fc1.weight f4 [30, 5]
00000000: 162a c5bd 5381 813f 5ca2 0bbf 6001 d43e
00000010: 8074 14bf b751 25bf 2cac bc3e 1866 dc3d
00000020: 96bd 2abf b46b 183f c9be 873e 8492 a0bd
00000030: b41a 1b3f 2832 a0be e0d4 c6be 599b 713f
00000040: 992f 9dbe 0a0f 653f 13c5 0fbf f54a 103f
00000050: f07f a13d 8e3f 223f cceb 323f 0cdb f2be
00000060: b463 ffbd 118c aabe 9ced aebe 0809 48bd
00000070: 727c 2ebe e483 23be 50d9 b6ba d3e0 1b3f
00000080: edd6 993e cc7a b9be acf8 99be 2c6c 1cbe
00000090: aeb5 493a a49c 9abe 8aa2 493e d79e 6b3e
000000a0: e93a a3bd 9be5 bbbc cf48 053f df99 d7be
000000b0: cf4c 9cbe 0657 393f 8a26 f0be 7dd1 ad3d
000000c0: 45dc 6a3e 0f67 4a3e dcf8 a33e bf66 c33e
000000d0: 26b9 2c3e 386c 493f 5562 b2be 182a 49bd
000000e0: df2e a7be a44e 493e b09d 8b3d 24e3 223e
000000f0: 9567 17bd a2e5 3ebd 246c a6be f9b2 83be
00000100: ac30 283f 5edf ffbe 0788 c6be ab23 f5bd
00000110: 02aa 12bf 8b24 6c3e 83b4 b5bf 97cc 453f
00000120: a35d 3a3f d5ea 553e eb7b 5abe fa7b fabd
00000130: 0e67 493d f1dc e4be 3c54 03bf 4d1f 003f
00000140: 1e99 d1be 471b 0c3f 663e 313e 36ab 2fbf
00000150: b285 7a3d f1da 78bf b156 2a3f 6326 2a3e
00000160: a4a9 a63e e150 fcbd 8342 2f3f e0c3 0e3f
00000170: 1907 4fbf dd31 44be 7b3b a93e fb92 333e
00000180: e49f 79be e710 443e d51f c93e 076f aa3e
00000190: 1bc3 11bd 9737 4abf 2975 cf3e 9dec 3dbf
000001a0: 0324 213f 716a 803f c735 1dbf ae79 1a3e
000001b0: c607 f83e 0dbb ebbe 58d8 ee3d 5ea8 c1be
000001c0: eeeb 0abe 1306 473e 9899 a43e 2d40 abbc
000001d0: d2b1 a93c e07e a8bd 438f 9abe fbea 7ebe
000001e0: d57c b3bd e845 063f 0248 c1be 3140 2d3e
000001f0: 68b9 993d 1012 edbe b8f0 683d e1a4 d83e
00000200: 7135 96be be11 2f3f 053f 263f 7ced fd3d
00000210: 3c5a b73e 2231 1c3f ab46 5b3d 2ca5 ea3e
00000220: 7a1f eabd af17 3f3f 5512 313e 79a6 f63e
00000230: 4cc2 513e 3748 b6be b291 30be 9e9d 4fbe
00000240: 3777 cdbe 0ce3 1abf 9bb4 343f f99d 2cbf
00000250: fd57 943e 598b ba3e
-0.09627168 1.0117592 -0.54544616 0.414073 -0.57990265 -0.6457781 0.36850107 0.1076166
-0.66695535 0.5953934 0.26512745 -0.07840446 0.6058762 -0.31288266 -0.38834286 0.94377667
-0.30700377 0.8947607 -0.56160086 0.56364375 0.0788573 0.63378227 0.6989105 -0.47432745
-0.12470189 -0.33309987 -0.34165657 -0.048836738 -0.1703966 -0.15968281 -0.0013950262 0.6088993
0.30046788 -0.362265 -0.30072534 -0.1527564 0.0007694614 -0.30197632 0.1969091 0.23009811
-0.079702206 -0.022936633 0.5206422 -0.42109582 -0.3052735 0.7239841 -0.46904403 0.08487222
0.22935589 0.19765876 0.32025802 0.38164327 0.16867504 0.78680754 -0.34840646 -0.04911241
-0.32652947 0.19658905 0.06817186 0.1590696 -0.036964018 -0.046605714 -0.3250438 -0.25722483
0.6569927 -0.49975103 -0.38775656 -0.11969694 -0.5729066 0.23060815 -1.4195713 0.77265304
0.7279913 0.20890363 -0.21336333 -0.12230678 0.049170546 -0.44699815 -0.51300406 0.5004776
-0.40937132 0.5472912 0.1730896 -0.6862062 0.061162658 -0.9720908 0.6653853 0.16616206
0.325513 -0.12320114 0.68460864 0.5576763 -0.80870205 -0.19159646 0.33053192 0.17536537
-0.243774 0.19147073 0.39282098 0.33287832 -0.035586458 -0.78991073 0.40519074 -0.7418917
0.62945575 1.0032483 -0.6141018 0.1508548 0.4844343 -0.46041146 0.11662358 -0.37823766
-0.13566563 0.19435911 0.32148433 -0.020904625 0.020714674 -0.082273245 -0.30187425 -0.24894325
-0.08764044 0.5245042 -0.3775025 0.16919018 0.075060666 -0.46302843 0.056870192 0.42313293
-0.29337648 0.6838645 0.6493991 0.12398812 0.3581103 0.6101247 0.05353419 0.4582914
-0.11431785 0.74645513 0.1729215 0.48173884 0.20484275 -0.3560197 -0.17243078 -0.2027497
-0.40130016 -0.60502696 0.7058808 -0.6742855 0.2897338 0.3643444

fc1.bias f4 [30]
00000000: a25c 0c3f c2e6 a43d a8e2 463f 9e0c b0be
00000010: 1987 733f 56c6 63be c428 333f eddf 8bbd
00000020: 7877 783f 990d 793e e5c9 d63e 3653 9ebe
00000030: 1ce4 4ebe 889e 713f 2ed6 56be afdc feb9
00000040: 41a5 c5bd 96df e33d ea41 39be b855 393f
00000050: d005 7f3e 91f6 cdbe f1aa 62be 83b7 373f
00000060: 1fa6 6b3f 04b0 3d3f 8bc0 313f 9572 253f
00000070: 4d99 6fbe 2951 953e
0.54828846 0.08051826 0.776896 -0.34384626 0.9512802 -0.22243628 0.6998408 -0.0682982
0.97057295 0.24321593 0.41950908 -0.3092286 -0.20204204 0.94382524 -0.2098014 -0.00048611077
-0.0965066 0.1112663 -0.1809155 0.7239642 0.24904561 -0.40227178 -0.22135521 0.7176439
0.92050356 0.74096704 0.6943442 0.64627963 -0.23398323 0.29163483

fc2.weight f4 [3, 30]
00000000: 67d7 8cbf 163c 123e 0288 06be 4e5f c63e
00000010: 9b70 8bbe 3096 dbbc bc64 e3be aacc d43d
00000020: 7178 49be f019 8d3d 7259 36bf ec02 aa3d
00000030: 113d 97be 3aaa 5dbf dd70 ae3e 7f9e 91be
00000040: 08bb f13e d501 71bf 1c17 0c3e be10 47be
00000050: c18c 5bbf ba6e 1d3e e975 ea3d f2a9 c9be
00000060: ccf6 0cbf 545b 4fbe b134 a5be 5035 85be
00000070: 1fe5 13be da66 a4bd e0e7 9bbe c683 09bf
00000080: 2a2b afbe 17f6 543f 788f d4be 0089 16bb
00000090: 2c59 03bf ea9c 48bd 8cb5 b1be 71f8 873e
000000a0: b2cd 18bf 8dee c4bd a508 9fbe cccc 5fbf
000000b0: 8e07 cb3f 5f22 f5be 1204 233f 8188 05be
000000c0: 7d7c 303e 8a44 e5be f5e6 903e 5273 57bf
000000d0: c596 99be 7a58 fbbe ab61 babe 3c23 39be
000000e0: 2023 07bf 2695 33be b0f1 6dbc 8754 a13e
000000f0: a04a aabd ae05 f3bd 0c90 14bf 725f 13bf
00000100: a424 e0be f85e f53c a7e1 b6be 908a 25bc
00000110: 2ff9 86be 3836 29be c8a5 d2bb 045e 863d
00000120: 45a1 5c3e cbbf 03bd dd3e 2e3f 311f c93e
00000130: ff19 0ebf 1851 10bf b3ce 9e3f e513 edbe
00000140: 2098 d33e b111 82bd 999a f0bc 63d4 4ebe
00000150: 258b 81be 43cb 02bf 716d cdbe f282 f5be
00000160: 7202 91bd 0af3 ccbf
-1.1003236 0.14280733 -0.1313782 0.38744587 -0.2723435 -0.026805013 -0.44412792 0.10390599
-0.19674851 0.06889713 -0.7123023 0.083013386 -0.29538777 -0.8658787 0.34070483 -0.28441235
0.47213006 -0.9414342 0.1368069 -0.1943998 -0.8576165 0.1537427 0.11448271 -0.3938747
-0.5506408 -0.20249683 -0.32266763 -0.26017237 -0.14442872 -0.0802743 -0.30450344 -0.53716695
-0.3421262 0.83188003 -0.41515708 -0.0022969842 -0.5130794 -0.04897777 -0.34708822 0.26556733
-0.59688866 -0.096158125 -0.31061283 -0.8742187 1.586168 -0.47877786 0.63678086 -0.13040353
0.17234989 -0.44778854 0.28301206 -0.8416034 -0.2999784 -0.4909094 -0.3640264 -0.18079847
-0.5278797 -0.17537364 -0.014522955 0.31509802 -0.08315015 -0.11866318 -0.580323 -0.57567513
-0.43777955 0.029952511 -0.35719034 -0.010103837 -0.26361987 -0.16524589 -0.006428454 0.06560901
0.21545894 -0.03216533 0.6806467 0.3928161 -0.55508417 -0.5637374 1.240683 -0.4630424
0.41327 -0.063510306 -0.029370593 -0.20198207 -0.2530147 -0.510914 -0.4012256 -0.47951466
-0.070805445 -1.601167

fc2.bias f4 [3]
00000000: 5afe aabd b596 8fbe 643d ecbe
-0.08349295 -0.28044668 -0.46140587

exp_avg f4 [30, 5]
00000000: 72ad 9abb d84d d5bb 3076 e4ba 5f62 a03b
00000010: 5f62 a0bb fbc8 973a a32f 613a 084b 193a
00000020: 2462 20ba 2462 203a b48e cd3a 4146 c73a
00000030: 2df3 593b bdd3 633b bdd3 63bb 38ff 043b
00000040: c959 8d3a 0a4a e03b 35c5 ce3a 35c5 ceba
00000050: 007c 85b7 8021 32b7 acd5 b33a c7b6 5b3b
00000060: c7b6 5bbb 0000 0000 0000 0000 0000 0000
00000070: 0000 0000 0000 0000 82a0 d3ba 4df7 c1ba
00000080: f075 b9b9 46e4 723b 46e4 72bb 0000 0000
00000090: 0400 0000 0000 0000 0400 0080 0400 0000
000000a0: 20f6 93b8 9415 8cb9 5aac 2b3a a689 073b
000000b0: a689 07bb a027 b339 808f 39b9 8567 c13a
000000c0: d0cb 0c3a d0cb 0cba 8966 a4bb 94b9 90bb
000000d0: f210 a2bb 6e15 743b 6e15 74bb 0000 0000
000000e0: 0000 0000 0000 0000 0000 0000 0000 0000
000000f0: 6498 bdba 1b69 f4ba 6d38 87ba 9e3c f939
00000100: 9e3c f9b9 2020 f4bb 4950 dbbb 2209 c9bb
00000110: aaf5 783b aaf5 78bb 80df b7bb c086 9438
00000120: 66c7 8ebb 5008 79bb 5008 793b bb86 baba
00000130: e147 c6ba f0b4 d4ba 76ab 9e39 76ab 9eb9
00000140: 30cb 1b3a dacd fe3a 7cf1 103a 2c17 32ba
00000150: 2c17 323a bfcb 613b ca23 df3a 8062 163b
00000160: 03cd 9b3a 03cd 9bba 4ae1 613b 60a8 c3b9
00000170: 7e4f ebba e08d 8dbb e08d 8d3b b4a7 603a
00000180: 7ecb 103a 4c02 0b3b 198f 463b 198f 46bb
00000190: 8580 03bc a9a3 92bb 3f8c cfbb 43a0 933b
000001a0: 43a0 93bb caa2 e23a b841 c03a 271a 9e3a
000001b0: b3d7 923a b3d7 92ba 0400 0000 0400 0000
000001c0: 0400 0000 0400 0080 0400 0000 8c67 e2ba
000001d0: 184f f1ba 1a66 8fba 657a 2a3b 657a 2abb
000001e0: cabc 57bb 1037 24bb dc01 fdba 7cd1 7e3b
000001f0: 7cd1 7ebb 6681 edba 0c06 4bba 3eba 453a
00000200: 7138 0f3b 7138 0fbb 1469 a9b9 aabb 0fba
00000210: ca32 593a 3f0d 573b 3f0d 57bb d017 b4b9
00000220: 7c76 c839 9573 d23a a36b 7a3b a36b 7abb
00000230: 0000 0000 0000 0000 0000 0000 0000 0000
00000240: 0000 0000 fbf3 7abb 6cf3 03ba 67c2 ab3a
00000250: f231 8e3b f231 8ebb
-0.0047203833 -0.006509524 -0.0017430242 0.0048945392 -0.0048945392 0.0011580283 0.0008590167 0.00058476673
-0.000611814 0.000611814 0.0015682788 0.0015203432 0.0033256516 0.0034763657 -0.0034763657 0.0020293724
0.0010784204 0.0068447636 0.0015775325 -0.0015775325 -1.5912578e-05 -1.0617427e-05 0.0013720295 0.0033525692
-0.0033525692 0.0 0.0 0.0 0.0 0.0 -0.0016145858 -0.0014798433
-0.0003537382 0.003706233 -0.003706233 0.0 6e-45 0.0 -6e-45 6e-45
-7.0553506e-05 -0.00026718958 0.00065488147 0.002068141 -0.002068141 0.00034171063 -0.00017696433 0.0014755583
0.00053709466 -0.00053709466 -0.005017106 -0.004416654 -0.0049458677 0.0037244218 -0.0037244218 0.0
0.0 0.0 0.0 0.0 -0.0014464972 -0.0018647047 -0.0010316499 0.00047538144
-0.00047538144 -0.0074501187 -0.0066929203 -0.006135122 0.0037988224 -0.0037988224 -0.00561136 7.082289e-05
-0.0043572662 -0.003799934 0.003799934 -0.0014230827 -0.0015127623 -0.001622824 0.00030263857 -0.00030263857
0.0005943058 0.0019440011 0.0005529148 -0.0006793614 0.0006793614 0.0034453718 0.0017024216 0.0022946894
0.001188666 -0.001188666 0.0034466558 -0.00037318747 -0.0017952768 -0.0043198913 0.0043198913 0.00085699116
0.0005523487 0.0021211086 0.0030297695 -0.0030297695 -0.008026247 -0.004475076 -0.0063338573 0.0045051887
-0.0045051887 0.0017290947 0.0014668023 0.0012062237 0.0011203199 -0.0011203199 6e-45 6e-45
6e-45 -6e-45 6e-45 -0.0017273291 -0.0018410413 -0.0010940463 0.0026012894 -0.0026012894
-0.0032918924 -0.0025057234 -0.0019302922 0.0038882187 -0.0038882187 -0.0018120229 -0.00077447365 0.0007542706
0.002185371 -0.002185371 -0.0003231248 -0.0005482981 0.0008285461 0.0032814292 -0.0032814292 -0.00034350017
0.0003823525 0.0016056175 0.003821113 -0.003821113 0.0 0.0 0.0 0.0
0.0 -0.0038292396 -0.0005033526 0.0013104201 0.00433945 -0.00433945

exp_avg_sq f4 [30, 5]
00000000: f8ba 433a 409f 443a 20bc 543a b03a c039
00000010: b03a c039 38ed 7d37 39cf 6738 53cd 7738
00000020: 90c0 c537 90c0 c537 4eea 9839 598c ac39
00000030: 2d43 6339 f52a 1439 f52a 1439 a844 0b3a
00000040: 8025 073a 0223 283a be2e 4239 be2e 4239
00000050: 405f 8439 4f01 9d39 2ca2 7b39 9472 ef38
00000060: 9472 ef38 0000 0000 0000 0000 0000 0000
00000070: 0000 0000 0000 0000 f0c0 ab39 563a cc39
00000080: d9cd bf39 494e 1339 494e 1339 0000 0000
00000090: 8868 062d 0000 0000 b11a bd30 b11a bd30
000000a0: 5e90 fd38 ec98 1f39 15fd 0639 34a1 5a38
000000b0: 34a1 5a38 71d4 3538 2e41 3438 8ab1 3b38
000000c0: 4618 8e37 4618 8e37 a34a 023a 56b5 123a
000000d0: 1e2b 1f3a c9c5 3839 c9c5 3839 0000 0000
000000e0: 0000 0000 0000 0000 0000 0000 0000 0000
000000f0: 61e5 4938 0168 4b38 272b 5338 4939 3a38
00000100: 4939 3a38 aa6e a839 f587 c339 49ab fd39
00000110: f78d 5c39 f78d 5c39 0357 3f3a 69b8 c73a
00000120: 7b86 a63a 07e4 9a39 07e4 9a39 1b1d 5b38
00000130: a655 8638 77d8 7638 f45d 8538 f45d 8538
00000140: 01e0 1d39 0d4a 8539 5a13 4f39 76af fa38
00000150: 76af fa38 d238 9b39 9c1e 9f39 ba52 9a39
00000160: cc4f cd38 cc4f cd38 1bc1 3f3a e16d 4b3a
00000170: ab54 5939 d834 a039 d834 a039 d3fa 8139
00000180: ee5b a039 8d09 7439 7fe4 ea38 7fe4 ea38
00000190: b949 9339 9ff0 6b39 0456 a439 3e70 3e39
000001a0: 3e70 3e39 bead 9239 b966 9339 d381 9639
000001b0: 0e47 4238 0e47 4238 7f23 dd2e b287 be25
000001c0: 28d7 452e aff7 5930 aff7 5930 b697 6939
000001d0: 67b7 9139 12b8 9039 f5ca bd38 f5ca bd38
000001e0: 8dc2 9739 fa42 9b39 b21d ab39 cbe4 0539
000001f0: cbe4 0539 15d2 3439 3349 3d39 16cd 0e39
00000200: 4769 ab38 4769 ab38 3a13 9c39 3233 c639
00000210: 1bf7 a939 4f7f 0539 4f7f 0539 b08a 6039
00000220: 040e 6839 36e0 2439 ea78 dd38 ea78 dd38
00000230: 0000 0000 0000 0000 0000 0000 0000 0000
00000240: 0000 0000 c1ee 073a 413d 2a3a 4255 2338
00000250: faa9 eb39 faa9 eb39
0.000746652 0.0007500537 0.0008115191 0.0003666482 0.0003666482 1.5135207e-05 5.5267683e-05 5.9080612e-05
2.3573899e-05 2.3573899e-05 0.0002916627 0.00032910964 0.00021673432 0.00014130383 0.00014130383 0.000531266
0.0005155429 0.0006413908 0.00018518695 0.00018518695 0.0002524797 0.00029946349 0.00023997639 0.0001141775
0.0001141775 0.0 0.0 0.0 0.0 0.0 0.0003275941 0.00038953376
0.00036583727 0.00014048176 0.00014048176 0.0 7.640229e-12 0.0 1.3759146e-09 1.3759146e-09
0.000120908706 0.0001522039 0.00012873516 5.2125382e-05 5.2125382e-05 4.3351614e-05 4.2976048e-05 4.474962e-05
1.6939022e-05 1.6939022e-05 0.0004970228 0.0005596479 0.00060717936 0.00017621288 0.00017621288 0.0
0.0 0.0 0.0 0.0 4.813576e-05 4.8495833e-05 5.034651e-05 4.4399207e-05
4.4399207e-05 0.00032125908 0.00037294594 0.00048383538 0.00021033721 0.00021033721 0.00072990375 0.0015237454
0.0012704873 0.00029543063 0.00029543063 5.2240775e-05 6.405571e-05 5.885257e-05 6.359434e-05 6.359434e-05
0.00015056135 0.0002542291 0.00019748267 0.00011953611 0.00011953611 0.00029606238 0.0003034965 0.00029434805
9.790025e-05 9.790025e-05 0.0007314847 0.00077602087 0.00020726274 0.0003055695 0.0003055695 0.00024791676
0.0003058607 0.00023273211 0.0001120055 0.0001120055 0.00028092953 0.00022500985 0.00031344604 0.00018161625
0.00018161625 0.00027976738 0.0002811456 0.00028706956 4.631938e-05 4.631938e-05 1.0056222e-10 3.3051697e-16
4.498371e-11 7.929612e-10 7.929612e-10 0.00022277128 0.000277932 0.00027602963 9.050026e-05 9.050026e-05
0.00028945916 0.00029613805 0.00032637786 0.000127691 0.000127691 0.000172444 0.00018051713 0.00013618576
8.173525e-05 8.173525e-05 0.00029768964 0.00037803646 0.000324183 0.00012731295 0.00012731295 0.0002141397
0.00022130465 0.00015723784 0.00010560623 0.00010560623 0.0 0.0 0.0 0.0
0.0 0.00051854184 0.0006494113 3.894163e-05 0.00044949335 0.00044949335

exp_avg f4 [30]
00000000: 1ee7 c4bb d2b5 2b3b 5562 feba 21c1 fb3a
00000010: 50f8 3bbb 0000 0000 d95e 8abb 0400 0000
00000020: 2c8d e8ba 85be 1cbb 8bca d9bb 0000 0000
00000030: 8fc4 5cba 4567 09bc 5fd5 703b d846 a13a
00000040: c07f 7939 0682 fcba 8c93 cc3b 4ada 01bb
00000050: 4c34 0bbc 80ed fd3a 0400 0000 f004 59bb
00000060: f0cc b5bb 1fc7 9fbb 1e07 43bb 2381 6abb
00000070: 0000 0000 5563 77bc
-0.0060089966 0.0026200903 -0.0019407967 0.0019207337 -0.0028681941 0.0 -0.0042227325 6e-45
-0.0017742268 -0.002391727 -0.0066464595 0.0 -0.00084216235 -0.008386438 0.0036748273 0.0012304438
0.00023794081 -0.0019264824 0.006243175 -0.0019813948 -0.008496355 0.0019373149 6e-45 -0.0033114515
-0.005548112 -0.004876032 -0.002975888 -0.0035782538 0.0 -0.015099366

exp_avg_sq f4 [30]
00000000: 328c 803a dced 1739 9434 313a aafd 6f3a
00000010: 0b17 123a 0000 0000 4813 2e3a f612 c830
00000020: 6def 8d39 e9fd b238 a9c6 5c3a 0000 0000
00000030: 0732 9b38 5a10 4e3a 1bc6 183b f212 1939
00000040: 3957 023a adf8 203a adbe 9e3a c092 173a
00000050: 25e1 e439 02b6 b639 43fb 7830 dd3e ec39
00000060: 6e8a fb39 bc85 d339 7d74 2e3a bc95 ed39
00000070: 0000 0000 ac46 0f3b
0.0009807406 0.00014489092 0.0006759849 0.00091549254 0.00055728917 0.0 0.00066404464 1.4557304e-09
0.00027072002 8.534996e-05 0.00084219367 0.0 7.400294e-05 0.0007860713 0.002331144 0.00014598275
0.00049721036 0.0006140571 0.0012111269 0.00057820603 0.00043655295 0.00034849352 9.057894e-10 0.00045060265
0.0004797759 0.00040344696 0.00066549313 0.00045315723 0.0 0.0021862192

exp_avg f4 [3, 30]
00000000: 6057 4a3b 828a c03b 9508 6a3c 4486 773c
00000010: 48cc b23c 0000 0000 0c45 623c 0400 0000
00000020: c569 653c 1e11 e43b 1e7f 9d3b 0000 0000
00000030: 84ff 913a 7069 f43b c16f c839 8d55 143b
00000040: 0adc 9e3b e4a1 a83a 0285 933b fd5c 133c
00000050: e2f4 0e3c de56 c73a 0400 0080 54fd f23b
00000060: 4a3e 173c 07c7 4a3c 3ed8 613c bef7 8e3c
00000070: 0000 0000 44cb 873a 3879 b53a 8016 85b8
00000080: f8ed 59bb 9cef 2fba 0cf7 6abb 0000 0000
00000090: d388 05bb 0400 0000 7cc9 54bb 6d0f 29bb
000000a0: d539 9bba 0000 0000 1f5e 68ba 444a 50bb
000000b0: 18a6 be3a 9702 91ba f405 f3b9 048b 213b
000000c0: 00d4 66ba 1bb9 38bb 52dd e4ba fd90 66ba
000000d0: 0400 0080 1dff 0cbb 7ce2 feba 2406 22bb
000000e0: 6acd 4cbb 6681 82bb 0000 0000 3c78 013b
000000f0: dd5e 5dbb bc33 123b e6af 4cbb 00a2 a637
00000100: 6045 60bb 0000 0000 0938 26bb 0000 0000
00000110: 801d efb7 7631 0bba b31f f7bb 0000 0000
00000120: f8a6 a73a 3682 e53b 4e6f 0c39 e8df d43a
00000130: 2d88 853a 60e8 b2b8 e76d 643b f080 3f3a
00000140: 9384 183b ea44 a6bb 0400 0000 e53a 353b
00000150: 6056 293b a685 a53b 6f8a d2bb cbea 38bb
00000160: 0000 0000 c1ac 263b
0.0030874833 0.0058758864 0.014284273 0.015107695 0.021825925 0.0 0.013810407 6e-45
0.014002268 0.0069600483 0.0048064133 0.0 0.0011138772 0.007458858 0.00038230236 0.0022634
0.004848008 0.001286563 0.0045019398 0.008994338 0.008725377 0.0015208384 -6e-45 0.007415453
0.009231159 0.012376553 0.013784466 0.017452117 0.0 0.001036026 0.001384533 -6.346125e-05
-0.0033253413 -0.0006711425 -0.0035852818 0.0 -0.0020375743 6e-45 -0.0032468727 -0.0025796548
-0.0011842797 0.0 -0.0008864123 -0.0031782547 0.0014545349 -0.0011063394 -0.00046353007 0.002464951
-0.0008805394 -0.0028186503 -0.0017460978 -0.00087954086 -6e-45 -0.0021514364 -0.001944616 -0.0024722898
-0.0031250366 -0.0039827107 0.0 0.0019755503 -0.0033778467 0.0022308668 -0.0031232773 1.986418e-05
-0.0034221038 0.0 -0.002536299 0.0 -2.8504757e-05 -0.00053097995 -0.0075416206 0.0
0.001279085 0.0070040477 0.00013392905 0.0016241046 0.0010187678 -8.5309846e-05 0.0034855546 0.0007305285
0.002327238 -0.005074133 6e-45 0.0027653512 0.0025838837 0.0050513325 -0.006425194 -0.002821612
0.0 0.002543256

exp_avg_sq f4 [3, 30]
00000000: 93b7 8939 04a4 9139 f609 ec3a d2ec f83a
00000010: 5569 873b 0000 0000 05ab dd3a 8e5e 262f
00000020: 770e d63a b887 6e39 e423 0a3a 0000 0000
00000030: 2f4e 2738 3f23 0539 a2fe 3137 cc69 4038
00000040: 5377 7239 761e ae37 dff9 3839 6377 243a
00000050: 271a 8639 ef71 b438 a298 8e2d b42d bf39
00000060: 9e9b 1b3a 7e3f a03a 3fc1 e83a 3ff6 253b
00000070: 0000 0000 a123 8236 f283 e83a f9dd fa38
00000080: 1a9f 003b 6a40 133a c9da 863b 0000 0000
00000090: 6450 083b 01a4 d82c bbcb fb3a 71d5 1839
000000a0: b1f4 d03a 0000 0000 10de 7437 dfa1 a339
000000b0: 7004 3b39 c5ea b437 2e9a 9238 3c2b a139
000000c0: 788e 4338 13a4 453a 2dc1 7539 db9b 1039
000000d0: 9ce9 9a2c 3261 113a 3a13 b23a 226e 7d3a
000000e0: 9245 1e3b 8ce5 043b 0000 0000 91f4 4239
000000f0: ad52 1e3b ecde 2839 65fd fa3a 0b99 4239
00000100: 23ad 693b 0000 0000 e764 013b 0000 0000
00000110: 4b85 ec3a e6bc 4939 00f0 1f3b 0000 0000
00000120: 9d1b 7238 2c93 2c3a 09cf ae37 841f da38
00000130: 76cb 2938 67c2 ef38 1d12 6b39 8190 6f3a
00000140: e8c1 8e39 96b6 ba39 5c84 8a25 d225 423a
00000150: 586d e43a 87f3 493a 35cf 4b3b 2f58 de3a
00000160: 0000 0000 3d78 6e38
0.0002626745 0.00027778756 0.001800834 0.0018991476 0.0041324296 0.0 0.001691193 1.5131205e-10
0.0016331215 0.00022748008 0.00052696303 0.0 3.9888717e-05 0.00012696999 1.0609308e-05 4.58749e-05
0.0002312337 2.07566e-05 0.00017640692 0.00062738935 0.00025577957 8.6042906e-05 1.6211314e-11 0.0003646441
0.00059359695 0.0012225953 0.0017757787 0.0025323776 0.0 3.8784497e-06 0.0017739518 0.000119622746
0.0019626082 0.00056172034 0.0041154367 0.0 0.002079987 6.1572973e-12 0.0019210497 0.00014575363
0.0015942064 0.0 1.4595236e-05 0.00031210386 0.00017835363 2.1566995e-05 6.990541e-05 0.00030740525
4.6624307e-05 0.00075394026 0.00023436984 0.00013790971 4.402879e-12 0.0005545794 0.0013586052 0.0009667595
0.0024150354 0.0020278422 0.0 0.0001859239 0.0024158165 0.00016104773 0.0019149004 0.00018558295
0.0035656176 0.0 0.001974398 0.0 0.0018045095 0.00019239224 0.0024404526 0.0
5.7723013e-05 0.00065832096 2.0838825e-05 0.0001040092 4.0482228e-05 0.00011432618 0.00022418094 0.0009138659
0.00027228822 0.00035612722 2.4028874e-16 0.00074061484 0.0017427607 0.000770383 0.0031098847 0.0016963537
0.0 5.6855602e-05

exp_avg f4 [3]
00000000: b66f 323c 3483 47bb 18ef 313b
0.010890892 -0.0030443193 0.0027150568

exp_avg_sq f4 [3]
00000000: 10ff 4f3a bc6c 9f3a 023e cf3a
0.00079344306 0.0012163143 0.0015811326
